data.pth (torch, 4671 bytes, 6 tensors)

l1.weight f4 [8, 38]
00000000: 7b63 773c ef18 3d3e 40f5 69be 5e9a c33e
00000010: d2b4 e23c 1670 9b3f 9dcf 623f f9d7 1cbf
00000020: 90fc dc3e 95a8 3ebe e0b4 23bf d764 263d
00000030: 5bd9 1cbf d5e5 06bf d4f2 883c 2136 e13e
00000040: 2db1 e6be d469 7bbe 71a3 073f 4d7f 38be
00000050: 16a0 943f d319 9dbe ff35 213e b2b0 603f
00000060: b591 643f 2de9 c63e 5102 87be 5c40 9f3f
00000070: aacc bb3f 717c 353f 6b1a 9bbf a5bc 6b3e
00000080: 18c0 903c 115d 59bd e444 a2bd c895 7e3e
00000090: c606 abbd 1017 17be ff66 403f 04f6 8a3e
000000a0: cab0 15be e90b 16be 3dfe e4be bf27 603f
000000b0: 2908 a33e 39c2 263f 889e a9be 94d5 89be
000000c0: b611 a9bf 4c0b 20be db90 243f 83bf e1be
000000d0: 9274 163f 111a d73e 7d9e fbbe 5f4a dfbe
000000e0: 0b48 9e3d 1fb4 adbd 9807 a23f 377d 9c3e
000000f0: f0a6 d93e 1c67 363f ee1a 363f 62f9 c13d
00000100: cf67 f33d 53ad 213f 3e30 42bd 3e2e b23e
00000110: 80a0 7b3b 4b25 923f 8807 bf3e 34ba 113e
00000120: 5852 18be a5a1 f0bd 6f0c 4abd f56e 94bd
00000130: e44f 3c3f 6c56 c43e 2d92 89be 538a 16bd
00000140: be74 b63e 7e07 2dbf 3f98 c8be 0df0 2e3f
00000150: 2fbb 1b3f 340e aabe bcb6 3a3f 3982 cabe
00000160: c4f3 283f 7ae6 4dbf edc0 1b3f b286 be3d
00000170: 4c39 1dbf 0adb 25bf e06d 55bf 444e 8cbe
00000180: f1b3 3a3f 3b14 e93e 56d7 183f c7b4 89be
00000190: e7e4 6a3f dd91 203e f153 a63e 987d 27bf
000001a0: 821c 73bf 316f 0cbf d355 8fbf 1bcd 8b3f
000001b0: a582 0c3f d1bc 743e b632 16be 6733 8e3e
000001c0: 1f8c 823e 167c f53e 3188 19be 0983 5c3d
000001d0: 497e 71bd 84bd 223e b73c 193f ff08 a83e
000001e0: b7e5 003f f292 d3be 2742 953f 6ac7 7ebe
000001f0: 2f1c 863f 70d6 2abe abcc d4be bdcf d4be
00000200: 3eb7 37bd fcd3 193f 3fe9 d4be 1be2 d4be
00000210: 2d3f 673d d1e3 70be a04c a1bf 4020 ffbb
00000220: 367e a2bd ab1b 883e 0351 c83e 4e2e b13e
00000230: 2e8f 84bd 4e9b c03e 9c73 b73f 31b2 883e
00000240: 91ff 203f 3bdb d4be f058 febd a7d1 f53e
00000250: 01e8 f8bd c925 7b3f 790c e53e 808e 21bf
00000260: 5347 b5be 5c06 d1bc a154 ae3e 59ae c53e
00000270: ce32 973d 876a 1f3e d622 3c3e b6f4 ea3d
00000280: 0326 12be ae33 203f 7663 353f b857 ca3e
00000290: 4d72 ad3d bcf3 0b3f d5d7 69be 3a89 23be
000002a0: b61a 443f e7a3 3c3f 7db7 0f3f e0ef b63e
000002b0: ce51 b33f 156a bcbb 19b5 e23d 89fe 27bc
000002c0: d239 10bf b96f 26bc 8b07 43bc b30e b03e
000002d0: bc60 b0bf 8542 b43e d9ef 6b3f d1ce 86bf
000002e0: 62da 84be 21f9 0d3c 5623 0d3f c741 3cbe
000002f0: e823 95be 29ae 523e 72b4 43be 0f12 8fbc
00000300: 39b0 6c3e 3132 a13e 26af 233f 95bf 773e
00000310: 19f8 a93e 1592 f5be 9de3 7c3f 9f3a f23e
00000320: 973a 4c3f 3937 853e 1e4a f9be a7ad 063f
00000330: 2273 3dbe c322 c43e cfd0 053f f87b de3e
00000340: 429c 2f3e 26df a33e 38a0 41bf 51d4 ccbe
00000350: 0ac3 fa3b 27e1 90be 8d7d 8dbf 0785 ba3e
00000360: a03d 91be 5186 a43e 1de1 223f 5868 7c3b
00000370: ea30 b63f 0eba 41bf cdd3 88be 9bef bc3e
00000380: 8d0e e83e e0f0 433f c2b3 833e d7ec 65bd
00000390: 906a f33d 059a a3bd 2d6b 003e e445 79bd
000003a0: 24f4 863d 6850 a5bc 5085 04be ba04 22be
000003b0: d69d fabc 50f5 4a3c c64e 8ebd 38c6 543d
000003c0: 201d b2bc b65c f83d ccfd 3fbc 6298 8d3c
000003d0: 025d fd3d c2bb b83d 0028 26ba 4c1c 9b3d
000003e0: dc02 8a3d 0061 48bb bcde debd b0f3 ba3c
000003f0: d172 1fbe 8ca2 793d cce6 0f3d 0006 d6ba
0.015099402 0.18466543 -0.22847462 0.3820371 0.027674112 1.2143581 0.8859804 -0.6126705
0.4316144 -0.18618996 -0.6394787 0.040623512 -0.6126916 -0.52694446 0.016717352 0.4398661
-0.4505705 -0.24552089 0.52983767 -0.18017311 1.1611354 -0.30683765 0.15743254 0.87769616
0.8928483 0.38849774 -0.26368955 1.2441516 1.4671834 0.7089301 -1.2117437 0.23021181
0.017669722 -0.05306727 -0.07923296 0.24861825 -0.08350901 -0.14754891 0.7515716 0.2714082
-0.14618221 -0.14652981 -0.44725218 0.8756065 0.31842163 0.6514011 -0.33128762 -0.2692076
-1.320853 -0.1562931 0.6428353 -0.44091424 0.5877162 0.42012075 -0.49144354 -0.43611428
0.07728585 -0.08481621 1.2658567 0.3056428 0.42510176 0.7125108 0.7113484 0.09471394
0.11885034 0.63155097 -0.04740929 0.34800905 0.0038395226 1.1417631 0.37310433 0.14231187
-0.14875162 -0.11749581 -0.049328264 -0.07247726 0.73559403 0.38347185 -0.26869336 -0.03675301
0.35635942 -0.6758956 -0.39178655 0.6833504 0.60832494 -0.3321396 0.7293508 -0.39552477
0.65996957 -0.80429804 0.60841256 0.09303035 -0.61415553 -0.6478735 -0.8337078 -0.27403462
0.7293082 0.45523247 0.59703577 -0.26895735 0.9175553 0.15680642 0.32485917 -0.65426016
-0.94965374 -0.54857165 -1.1198066 1.0921968 0.5488685 0.23900153 -0.14667782 0.27773592
0.2549753 0.47946233 -0.14993359 0.053835902 -0.058958326 0.15892607 0.5985827 0.32819363
0.5035052 -0.41323048 1.1660813 -0.24880758 1.0477351 -0.16683364 -0.415624 -0.41564742
-0.044852488 0.6008909 -0.41584203 -0.41578755 0.056456733 -0.23524405 -1.2601509 -0.007785827
-0.07934229 0.2658361 0.39124307 0.3460564 -0.06472622 0.37618488 1.4332156 0.2669845
0.62889963 -0.4157351 -0.12419307 0.48011515 -0.12153626 0.9810453 0.44736078 -0.6310806
-0.3540598 -0.025515728 0.34048942 0.3860958 0.07382737 0.1556798 0.18372664 0.11472456
-0.14272313 0.62578857 0.7085489 0.3952005 0.08469067 0.54668784 -0.2283624 -0.15970317
0.7660326 0.73687595 0.56139356 0.35729885 1.400934 -0.0057499507 0.11069698 -0.010253557
-0.56338227 -0.010158473 -0.011903654 0.34386215 -1.3779521 0.35207 0.92162853 -1.0531865
-0.25947863 0.008665354 0.55132043 -0.18384467 -0.29128957 0.2057425 -0.19111803 -0.017464666
0.23114099 0.31483606 0.6393913 0.24194176 0.33197096 -0.47963014 0.9878481 0.4731035
0.797769 0.26018694 -0.4868936 0.5260872 -0.18500951 0.3830777 0.5227174 0.43453956
0.17149451 0.32006186 -0.756351 -0.40005735 0.007652645 -0.28296778 -1.105394 0.36429617
-0.2836733 0.32133725 0.63624746 0.0038514342 1.4233677 -0.7567452 -0.2672409 0.36901554
0.453236 0.7653942 0.25723082 -0.05613407 0.118855596 -0.07988361 0.12540884 -0.06085767
0.06589535 -0.020179942 -0.1294148 -0.15822116 -0.03059284 0.012387589 -0.069486186 0.05194685
-0.021742404 0.12127058 -0.011718225 0.017284576 0.123712555 0.09020187 -0.0006338358 0.075737566
0.06738827 -0.0030575395 -0.10882327 0.022821277 -0.15571143 0.060946032 0.035132214 -0.0016328692

l1.bias f4 [8]
00000000: 67cc 1c3f b3f1 fd3e 071b 7e3f 3dd8 d43e
00000010: 0bcd 683f e318 503f f25f 28be a95a 5b3f
0.61249393 0.49598464 0.9925999 0.41571227 0.9093787 0.81287974 -0.1644285 0.8568521

l2.weight f4 [8, 8]
00000000: d20c 82bf 50ed 98be 3d9c 0c3e 2c44 583b
00000010: 7140 cc3f 90a2 4c3f d163 7b3e cee9 c03f
00000020: d4ba 433f d377 493f 77d2 153f f588 a1bf
00000030: 0532 c33f 347b 16bd 5fc8 a1be 9d82 ac3f
00000040: d1b7 d73f d375 9c3e 2443 64bf e673 9f3f
00000050: 68bc c13e 907f 1b3f ccb0 35be 26cc 353c
00000060: 4445 23bf a7cf c3be 6de5 b13f b4a8 473f
00000070: 6a29 133e 189a 2e3f b7fa 623e ecd4 9f3f
00000080: 2a5f ce3e b073 563f 4827 993f 0c87 4a3f
00000090: d250 07bf ba34 293f c911 dcbd 9cc3 ecbf
000000a0: 989d 193f 6b32 8bbe 0d3a 213f 164b c43f
000000b0: ae4e 61bf 1bed 713f c09b ffbc 1812 aebd
000000c0: bf58 353d a95e 6b3f e21d bf3f 587f 583e
000000d0: 5637 4ebf 4dd0 f3be 88e2 af3e cab9 7b3f
000000e0: a9f8 a4be 20c7 91bf 6ff5 22bf 6210 863e
000000f0: dd2a 753f 2e0b 9c3f 8ae1 973e b1a4 a23e
-1.0160162 -0.29868555 0.13731475 0.0032999618 1.5957166 0.7993555 0.24549796 1.5071352
0.7645695 0.7869846 0.5852427 -1.2619921 1.524964 -0.03673859 -0.31598184 1.347736
1.6852971 0.30558643 -0.8916495 1.2457244 0.37839055 0.6074152 -0.17743224 0.011096036
-0.63777566 -0.38244364 1.389814 0.77991796 0.14371267 0.6820388 0.22165953 1.2486854
0.4030698 0.83770275 1.1965113 0.79112315 -0.52857697 0.6609608 -0.1074558 -1.8497195
0.60006094 -0.27186903 0.62979203 1.5335414 -0.8801068 0.9450242 -0.031202197 -0.08499545
0.044274088 0.91941315 1.4930995 0.21142328 -0.80553186 -0.47619858 0.34352517 0.98330367
-0.32220963 -1.1388893 -0.6365575 0.26184374 0.9576853 1.2190912 0.2966426 0.31766275

l2.bias f4 [8]
00000000: 5f4b 023f 96bb 423f 6c20 083f 4aec 8a3e
00000010: 4576 1e3f e9ca 8dbc 75f5 463f 1ec9 e53e
0.5089626 0.76067483 0.5317447 0.271334 0.61899215 -0.01730867 0.7771829 0.44880003

l3.weight f4 [13, 8]
00000000: 7f15 213e c509 68bd 4fc2 d83e 8345 6d3e
00000010: d7c0 c5bf fc42 7fbc 4163 b5bf eb2d 723d
00000020: 12da 063f aba6 8dbf baf7 36bf 8a12 403f
00000030: 3730 18bf ade4 25bd 891c dabd 2db0 c03e
00000040: 89a3 e0be eb35 753f 494b be3e 2ee2 81bf
00000050: 66d0 8bbf f646 f4bf 82e1 01bf f692 29bf
00000060: 9a8d 75bc fe8a f33e b4cd e5be f824 413e
00000070: 6f8a 33be 55e8 3ebe 26bd 84bd 91cf 28bf
00000080: 975b 50bf 5d8d dd3d 78e0 b93e 012d 9cbf
00000090: 3ea0 c9be 51c9 08bd 5dc7 583e 4f30 92bf
000000a0: e306 a0be f163 a1bf 808e 38be 09d4 ad3e
000000b0: 63cd 923e 9d5f 933e 5560 113f 44ec aebf
000000c0: 5922 62bf 20c2 a2bf c4dd e33e fe29 a9bf
000000d0: 12e7 153f 63d6 2d3f 930d 87bf c426 c8bf
000000e0: d0b6 8abf 2fea e4bf 4ebe d63e 602f c43d
000000f0: 90da 503c ea45 ca3e 96b4 12bf 69e4 da3e
00000100: 1e06 4abe b354 96be ca7d ad3e ce36 90be
00000110: 6602 e63e 6268 82be e00e f4bf 2092 7b3e
00000120: a70a 123f 99b3 efbf edfb 59be 2628 c43d
00000130: e612 fd3c 7f31 5c3e 5c01 d6bf 3b5b 5d3f
00000140: 0e29 3f3f b219 043f 0e39 c5bf b5aa 1a3e
00000150: 908b 08bf 9b6e f2bf 082a 373f 923b cfbf
00000160: c1c1 363f c716 3d3f 37df 0abf f7e0 1ebe
00000170: 9838 9abf 967e d6bf de33 84bf 6d74 5e3f
00000180: 8329 9abf cd8d 593e b30f a9bf 7bc2 813e
00000190: a11e 313f 817f 3ebf 71e7 793f af64 8fbf
0.15730856 -0.056649942 0.42335746 0.23171048 -1.5449475 -0.015579935 -1.4170915 0.059125822
0.526765 -1.1066488 -0.7147175 0.7502829 -0.5944857 -0.040501285 -0.10649974 0.3763441
-0.43874767 0.957854 0.37166813 -1.014715 -1.0922973 -1.9084156 -0.5073472 -0.6623987
-0.014987374 0.4756698 -0.44883502 0.18861759 -0.17533277 -0.18643315 -0.0648139 -0.6594172
-0.81389755 0.108179785 0.3630407 -1.2201234 -0.39380068 -0.033395115 0.21169801 -1.1420993
-0.31255254 -1.2608625 -0.1802311 0.33950832 0.28672323 0.28783885 0.56787616 -1.3665853
-0.8833366 -1.2715492 0.4450513 -1.321594 0.5855571 0.67905253 -1.0551018 -1.563683
-1.083704 -1.7883967 0.41942066 0.095793486 0.012747422 0.39506465 -0.573068 0.42752388
-0.19728896 -0.29361495 0.33885032 -0.28166813 0.44923705 -0.25470263 -1.906704 0.24567461
0.57047504 -1.8726684 -0.21287508 0.0957797 0.0308928 0.21503256 -1.6719165 0.8646733
0.7467202 0.5160171 -1.5408037 0.15104182 -0.53337955 -1.8940004 0.7154851 -1.6190054
0.71389395 0.7386288 -0.5424685 -0.15515505 -1.2048521 -1.6757381 -1.0328329 0.868964
-1.2043918 0.21245499 -1.3207916 0.2534369 0.6918736 -0.74413306 0.97618777 -1.1202601

l3.bias f4 [13]
00000000: 338e debe ac8a bbbe 2c44 6a3e cf34 52be
00000010: 0a4b 8d3e 9930 18be 7873 2bbe 000a 86be
00000020: 27e3 583d 619f 74bd 95bd f8bd 5949 673e
00000030: 651e 0d3e
-0.43467864 -0.36629236 0.22877568 -0.20527957 0.27596313 -0.14862289 -0.16743267 -0.26179504
0.052951004 -0.059722308 -0.12145535 0.22586574 0.13781126
